model/mnist.tflite (tflite, 11960 bytes, 6 tensors)

sequential/conv1/BiasAdd/ReadVariableOp/resource f4 [4]
000000 55 b7 c1 3d 09 e0 29 be 5a 58 81 3d 77 8b 3d be
       0.09458796 -0.16589369 0.0631568 -0.18510233

sequential/conv2/BiasAdd/ReadVariableOp/resource f4 [8]
000000 84 fb 72 3d 16 35 eb be 05 14 bf be 9c 56 c0 3c
       0.059321895 -0.4593894 -0.3731996 0.023478799
000010 17 7a 8f bb 0a 0c c1 bc 85 49 f5 3c 9e cd ea be
       -0.004378568 -0.023565311 0.029942283 -0.45859998

sequential/dense/BiasAdd/ReadVariableOp/resource f4 [10]
000000 38 0c c8 bd 91 da db 3e 60 bd 1d be 99 f7 24 be
       -0.097679555 0.4294019 -0.15404272 -0.16110076
000010 0d f3 c9 bd cc fe 82 3c f5 f5 6a bd fd 41 6f bd
       -0.098608114 0.015990637 -0.05736347 -0.05841254
000020 bc c7 20 3c 9b b9 d0 3d
       0.009813245 0.101916514

sequential/dense/MatMul f4 [10, 200]
000000 02 ca 60 be 86 be 80 be 5e 3e 5b bd de 60 97 3c
       -0.2195206 -0.25145358 -0.053526275 0.018478807
000010 d1 73 3a bb 30 24 ad be e0 2f 13 bd 86 dc b9 bd
       -0.002845038 -0.3381667 -0.03593433 -0.09075265
000020 2c 00 e9 bd 42 0f d0 3d e3 9f 3b bd bd 41 85 3d
       -0.11376986 0.1015916 -0.045806777 0.06506679
000030 c0 12 24 bd 33 02 9f be ac e2 06 3d a7 2d 13 bd
       -0.040056944 -0.31056365 0.032931015 -0.03593221
000040 34 b4 94 be 00 ba 74 3d e7 d7 ff 3d 1e 3a 94 bc
       -0.29043734 0.059747696 0.12492352 -0.018094119
000050 d0 9f 7d 3d 7f 4b b7 bd 9f d9 c7 3c 41 ac b8 3c
       0.061919987 -0.089499466 0.024395762 0.022543075
000060 ad f6 e4 be 9e a5 69 bd cf 60 1f 3d 0b 5e b2 3b
       -0.4471945 -0.05704271 0.038910683 0.0054433397
000070 2e aa b6 3d 59 85 99 bd c6 d1 92 bc e0 b4 99 3c
       0.08919178 -0.07496137 -0.017922293 0.018763006
000080 16 32 0c bf 6f aa 98 bd 7e 3c f0 bb 9a ea f3 3c
       -0.54763925 -0.07454383 -0.00733143 0.029774953
000090 85 af 00 3d 24 3a 30 be 6c 07 c9 be 46 a1 71 be
       0.03141739 -0.17209679 -0.39263475 -0.23596677
0000a0 e0 3a 9a be a2 6c 96 3d bf a2 e2 3c 62 b3 bf 3d
       -0.30123043 0.07344939 0.027665494 0.093603864
0000b0 f0 ab ca bc 42 77 2a be 12 3c 87 3d 80 a1 03 3d
       -0.02474019 -0.16647056 0.066032544 0.03213644
0000c0 2b 8f 2e be e5 49 24 3d ee f1 ae bd 5e 74 23 3d
       -0.17046802 0.040109534 -0.08542238 0.0399059
0000d0 62 72 4a 3d 70 d1 84 be 00 46 87 3d 3e 13 bd 3d
       0.04942549 -0.25941038 0.06605148 0.09232186
0000e0 f0 dd 3e 3d 1a 21 b0 3c 97 7b 62 bd 4c bc 6b bb
       0.046598375 0.021500159 -0.055293646 -0.0035970388
0000f0 d8 0e 28 3c bb 09 3e bc 3f 7f a1 bd 70 b9 86 37
       0.010257445 -0.011599 -0.078855984 1.6060396e-05
000100 b1 2b 28 3d fa 1f 54 bd 0e 4f 08 3e 7b b1 9b bd
       0.041057292 -0.051788308 0.13311407 -0.07602211
000110 2d db 4f bc 73 10 22 3e 18 28 23 be 20 60 7e be
       -0.012686533 0.15826587 -0.15933263 -0.24841356
000120 92 b0 a0 be de a0 6d bd a6 ec 42 3e e1 49 4a 3d
       -0.31384712 -0.058014743 0.19035587 0.049386863
000130 ce d3 a7 3c 87 fb 37 3e 3b ce 52 be 92 9d 32 be
       0.020486739 0.17967044 -0.20586483 -0.17442921
000140 68 50 ce be c1 93 d8 3d c9 29 b5 3d ea 40 fa 3b
       -0.4029572 0.10575057 0.088458605 0.007637133
000150 7e 88 7a 3d e7 65 ef bd eb 14 11 3e 71 a4 0f 3e
       0.061165325 -0.11689358 0.14168136 0.14027573
000160 66 f1 47 be fd 16 39 3d d4 75 b7 bc 09 27 25 bd
       -0.1952568 0.04518794 -0.022395052 -0.04032043
000170 4a 26 0c 3d 74 41 9c be cf eb 47 bd f9 9f 0b 3e
       0.034216203 -0.30518687 -0.04880887 0.13635243
000180 4b 2b 44 3d 19 bf 8a 3d 7a cb 7b be 84 a0 cb be
       0.04789285 0.0677473 -0.24589339 -0.397709
000190 f8 c9 40 be dc bf 4a be a9 e8 8e be e0 79 7a be
       -0.18827045 -0.19799751 -0.2791188 -0.24460554
0001a0 4b b1 c5 3d 2b 73 c1 3d 69 3c a2 3d 54 31 9e be
       0.096529566 0.09445795 0.079216786 -0.3089701
0001b0 ab 8d 17 bf 85 ec e4 3c 80 ee 23 3e 46 be b3 3d
       -0.59200543 0.027944813 0.1600895 0.08776526
0001c0 bb a8 ab be c3 71 64 3e 88 52 3d 3e 7f 54 1f be
       -0.3352717 0.22309022 0.18488514 -0.15559576
0001d0 52 9f 6e be 94 6a 2c 3e b9 4e a6 3c bf 71 ca 3d
       -0.23302963 0.16837531 0.02030121 0.098849766
0001e0 39 c6 07 bf 97 8d 0b 3e be f1 bd 3d 44 80 53 be
       -0.5303684 0.13628231 0.09274624 -0.20654398
0001f0 03 31 92 be ec 95 a9 bd 12 3e 9b 3d 03 7c b9 3d
       -0.28553018 -0.082805485 0.07580198 0.090568565
000200 38 e7 e0 be d6 3f 9e 3d f0 37 17 3c e1 18 02 be
       -0.43926406 0.077270195 0.009229645 -0.12704803
000210 de e3 7f be 00 11 ca bd 3b 9b 1c bd 15 69 a9 3d
       -0.24989268 -0.09866524 -0.038233977 0.08271996
000220 fb 20 b6 be e4 b4 93 be 2c e4 ec be 81 42 e1 bc
       -0.35572037 -0.28848946 -0.4626783 -0.027497532
000230 06 76 29 bd 99 51 11 bf 54 cb 1b 3e 40 d4 2a bd
       -0.04137232 -0.56765133 0.15214282 -0.041706324
000240 0f d8 d2 be 03 fe d3 3d a6 f3 08 be 45 b4 30 3e
       -0.41180465 0.10351183 -0.13374195 0.17256267
000250 3b df bc 3d 1e 12 ae be 43 77 32 3e 78 f3 63 3e
       0.09222265 -0.33998197 0.17428307 0.22260845
000260 2e a4 f5 3d 3a 95 fd 3d 64 3e 02 3e 36 dd 98 bd
       0.119942054 0.12381978 0.12719113 -0.07464068
000270 29 a1 4f bd 8b a4 83 3d 74 e5 13 3e 26 7d 46 3e
       -0.050690804 0.064278685 0.14442998 0.19383678
000280 81 6f fb bd d2 cf 2c 3d 53 41 a4 3d 78 2c c0 be
       -0.12277127 0.04219038 0.08020272 -0.37533927
000290 b7 65 ed be a0 0f ba 3d 57 19 9b 3c 09 c4 60 3d
       -0.46366665 0.090850115 0.018932981 0.054874454
0002a0 e1 b6 6f bd d1 95 60 3d ff 82 e3 3d 49 40 0b 3d
       -0.058524016 0.054830376 0.1110897 0.033996854
0002b0 f9 64 64 bd 30 b5 08 3d f8 6b 2e be ee dc a0 be
       -0.055760358 0.03337592 -0.17033374 -0.31418556
0002c0 62 8e 8d bd ee 4c 2e be 7f b8 35 bd 16 68 10 3e
       -0.06911923 -0.17021534 -0.044365402 0.14102206
0002d0 9a 82 19 3e 6d 67 27 bd 5b 7a cc be 48 d6 01 be
       0.14991227 -0.04087012 -0.399371 -0.12679398
0002e0 4e da a2 3d 9d c4 b6 3d b1 bf 3f bd 63 a4 03 3e
       0.079517946 0.0892422 -0.04681367 0.12855677
0002f0 35 4a 57 3e 7a 0c 1f 3c 27 93 f8 bd 49 b5 8b 3c
       0.21024401 0.0097075645 -0.12137442 0.017054217
000300 61 b9 a0 3d 44 9b b6 3d 42 a4 49 3d e6 64 90 bd
       0.07847858 0.08916333 0.049228914 -0.07050495
000310 dd 27 bb 3d a6 a7 d1 3d cd 4d 3d 3e 58 98 b7 3d
       0.09138463 0.102370545 0.1848671 0.08964604
000320 b6 84 1e 3e 71 d0 e5 bd 33 93 94 be 4f 18 7b be
       0.15480313 -0.11221398 -0.29018554 -0.24520992
000330 6e e0 5a be 76 0f 34 bc 69 8f 39 be bc a0 96 be
       -0.21374676 -0.010990014 -0.18121113 -0.29419506
000340 20 f1 b5 3d 6b 97 12 be f9 08 d0 3d 4e 28 e3 bc
       0.088838816 -0.14315574 0.101579614 -0.02772918
000350 36 db be bd 25 d4 47 3d a5 9d 47 3d c4 b1 55 be
       -0.09319155 0.0487863 0.048734326 -0.20868593
000360 9e 87 c1 3c e4 e6 93 3e 87 fa e7 3e 75 e5 bb bc
       0.023624238 0.28887093 0.45308325 -0.022936562
000370 98 4c 90 bc ed a0 3e 3d 4c 30 09 3e ac 45 9c 3c
       -0.017614648 0.04654019 0.1339733 0.01907619
000380 c9 6e cf 3d c5 e8 53 3e 1f 26 2f bc 3d bd bf bc
       0.101285525 0.20694263 -0.010690241 -0.023405666
000390 f4 6e b0 3d 20 bc b2 be 5e 8e bb 3e 92 c2 37 3e
       0.08614913 -0.34909153 0.36632055 0.17945316
0003a0 a6 84 59 be 8c bc 9e 3e 19 b3 ea be b1 78 e5 bc
       -0.21242008 0.31003225 -0.45839766 -0.028011652
0003b0 90 46 3e bc 47 23 f2 be 60 59 ba 3d 5b ed 2a 3e
       -0.011613503 -0.4729254 0.09099078 0.16692106
0003c0 19 c0 ea 3c 32 de 3d be 9b 88 17 be ea 9f 05 bd
       0.028656052 -0.18541792 -0.14798205 -0.03262321
0003d0 32 99 f6 bd 9c 49 ad 3a 3d 17 dd bd 8c b1 8a bd
       -0.120409384 0.001322079 -0.10795448 -0.06772146
0003e0 2e 0d e5 bd 59 61 8c be 78 95 ad bc cf 97 94 be
       -0.111841545 -0.2741802 -0.021189436 -0.2902207
0003f0 67 45 bc be 42 48 fa 3c 37 5a b3 bc 41 05 85 be
       -0.367717 0.030552033 -0.021893604 -0.2598057

sequential/conv1/Conv2D f4 [4, 3, 3, 1]
000000 6c 2c ff 3d 39 2a d2 3e b9 15 a4 3e 4a 67 4e 3f
       0.12459645 0.41047838 0.32047823 0.80626357
000010 cf c8 a5 3e ca da c0 3e 86 0b af 3e 5f b2 17 3f
       0.32379767 0.37666923 0.3418848 0.5925655
000020 75 b2 1c 3f df e1 85 be d2 a9 c2 3e b0 4c 27 3f
       0.61209804 -0.26148888 0.38020188 0.6535139
000030 d0 6a 8a be 38 6d 53 3e 48 6a f2 3e c3 cf 0a be
       -0.27034616 0.20647132 0.4734671 -0.13555817
000040 29 c7 bc 3e 39 74 87 3d c4 3c 89 3e d6 be 2a 3f
       0.36870697 0.066139646 0.26804173 0.6669744
000050 a8 d0 0e 3f 3d 13 4d 3f 4c 57 32 3e 85 6b bb 3e
       0.55787134 0.8010748 0.17416114 0.36605468
000060 af f1 7a bc 0e c0 0a 3e 36 3a 1c be ab ab 21 bf
       -0.015316411 0.13549826 -0.1525658 -0.6315257
000070 0c 75 e8 be 8f b0 ab 3e 32 95 1e bf 79 2f 53 3d
       -0.454018 0.3353314 -0.61946404 0.051558945
000080 c5 4d cc 3e a8 6f b8 be 48 91 19 3e 56 3f 06 3f
       0.39903083 -0.36022687 0.14996827 0.5244039

sequential/conv2/Conv2D f4 [8, 3, 3, 4]
000000 b0 99 44 3e 7b cd 19 3e c0 53 aa 3e 1e 3b 8d 3c
       0.19199252 0.15019791 0.3326702 0.017240103
000010 e8 f7 ce 3d ad d0 04 3e 33 cb e5 3e d1 e6 78 3d
       0.10105878 0.12970228 0.4488159 0.060767
000020 fd cb c3 3e 42 9d 61 3e be 18 6a 3e 25 03 2c 3e
       0.38241568 0.22032645 0.22861001 0.16798075
000030 ae f4 8d be d8 60 27 be f3 20 1a be 2b 58 50 be
       -0.27725738 -0.16345537 -0.15051632 -0.20346133
000040 27 e1 80 bd 45 bc 9b 3b 7a ef 32 3e 95 d3 1b bd
       -0.062929444 0.004752668 0.17474166 -0.038043577
000050 ff aa ee be 4e 5d f1 be 55 a4 99 be 83 f9 be bd
       -0.46614835 -0.47141498 -0.30008188 -0.09324934
000060 94 cc a8 be 4a ca e8 3c 7b 57 d9 be b9 ef 35 be
       -0.3296858 0.028416771 -0.42449555 -0.17767228
000070 d9 eb 88 bd d0 8f 9f be 97 2a 8b bd 7c 22 18 3e
       -0.06685609 -0.31164408 -0.06795233 0.14856905
000080 92 02 9f bd ac b2 54 be 29 06 b4 be 42 7f 10 3e
       -0.07764162 -0.20771283 -0.3516095 0.14111045
000090 5b 9a 94 be 12 81 55 bc 4f d7 a1 be 17 a2 9a 3d
       -0.29024014 -0.013031261 -0.3160958 0.075504474
0000a0 b9 18 e3 3d cc e7 a4 3e 6a 85 31 3d 38 f1 7e 3e
       0.110887 0.32208097 0.043340124 0.24896705
0000b0 f0 e9 0a 3e cb cf 55 3c ac 70 37 3d cc a1 07 3c
       0.13565803 0.01305003 0.044785187 0.0082783215
0000c0 21 fc 18 be f4 19 6f 3d 67 f0 50 be 22 bd c9 3e
       -0.1493993 0.05837436 -0.20404206 0.3940211
0000d0 8e 23 67 3e 16 c1 00 3f b0 a3 d2 bd 40 b9 71 3e
       0.22572157 0.50294626 -0.10285127 0.23605824
0000e0 d3 00 96 be ee 86 a7 3b 76 3f 39 bd 0b c7 74 be
       -0.29297504 0.0051125204 -0.045226537 -0.23904054
0000f0 87 ef 6b 3c 5a 54 f9 3d c0 ec de bd 63 19 5c 3e
       0.0144003695 0.12174292 -0.10885 0.2149406
000100 27 3c 4c 3e f5 6a c4 3e db 6e d0 3d 69 3b f8 3e
       0.19944821 0.38362852 0.10177394 0.48482826
000110 85 8a a3 be 9e 7f 81 be c2 f6 98 bd 73 bc f1 be
       -0.3194162 -0.25292677 -0.0746894 -0.47214088
000120 b9 ff c6 bd 8a c1 4c bd c3 52 78 be 33 4a 5f 3d
       -0.09716744 -0.04998926 -0.24250321 0.05451412
000130 5b 8c 50 3e 14 c4 5b be a0 4e b8 3d 96 51 2a 3e
       0.20366041 -0.21461517 0.089993715 0.16632685
000140 df 26 70 3d 28 fd 6f be 2b 5e e4 3d 84 09 ab be
       0.05863082 -0.23436415 0.111507736 -0.33405697
000150 e0 0a 47 3e a7 ad 1b be 8f 29 54 3e 16 42 c2 be
       0.19437742 -0.15202962 0.20718978 -0.37941045
000160 df 20 9c 3e 87 64 9b 3e 4f 53 64 bc e2 3e 13 be
       0.3049383 0.30350134 -0.013935878 -0.14379457
000170 27 3f 3c 3e 23 8e cc 3e 68 ca 9b bd a6 ae 49 be
       0.18383466 0.39952192 -0.07606965 -0.1969553
000180 1f 51 ec be 6a 12 90 be a9 1d 97 bd 29 fb 3c be
       -0.4615564 -0.2813905 -0.07378704 -0.18455185
000190 c9 16 54 be 82 e8 ef 3d 9c 25 7d be 0a 0a b1 be
       -0.20711817 0.11714269 -0.24721378 -0.34577972
0001a0 cb 47 28 3e 6f a6 b6 3e 56 cb a6 bd f2 63 02 be
       0.16433637 0.35673854 -0.08144252 -0.12733439
0001b0 5a c3 c5 be b5 26 83 be 78 ef 29 be a5 50 0e be
       -0.38625604 -0.2561547 -0.16595256 -0.13897951
0001c0 60 c6 b1 bd e7 02 e8 3d 32 fe 17 be c7 18 da be
       -0.08680415 0.113286786 -0.14843062 -0.4259703
0001d0 5a 54 a4 be c5 89 73 be 6a e9 8b 3e 48 1c 0b bf
       -0.32095605 -0.23783024 0.27326518 -0.5434003
0001e0 15 71 ef 3c 4a eb 8a bc b3 08 81 be cd 43 bd be
       0.029228726 -0.016957898 -0.2520195 -0.3696579
0001f0 e7 7d 4b be 67 af 85 be f1 08 d5 bb 31 f4 ad bd
       -0.19872247 -0.26110384 -0.00650131 -0.084938414
000200 c9 8f 75 bd 94 47 02 bd 08 cc 99 be 3b 63 ad bd
       -0.059951577 -0.031806543 -0.30038476 -0.08466192
000210 b2 4d 27 3e a1 94 4f 3d 9c ea 9a 3e 82 fc 2f 3e
       0.16338232 0.050678853 0.30257118 0.17186168
000220 8c 37 5b 3e 34 82 89 3d 54 0d 8f 3e 07 da 18 3e
       0.21407908 0.067142874 0.27939856 0.14926921
000230 56 09 60 3e 12 67 30 3e 57 2d 8c 3e 5a ac 47 be
       0.21878561 0.17226818 0.27378342 -0.1949934
000240 43 d3 c2 be 74 b6 a2 be 77 57 24 bf 0e 4f 87 3e
       -0.38051805 -0.31779826 -0.6419596 0.264275
000250 26 f4 dc bd a1 de 83 be 2f 7d dd be 53 84 b5 3d
       -0.10788755 -0.2575579 -0.4325957 0.088631295
000260 54 c5 13 be 20 5f a5 be 81 3f 4d be 63 80 7f be
       -0.14430743 -0.32299137 -0.20043756 -0.2495132
000270 ba 92 b2 3e 91 28 30 3e b9 28 ed 3d e6 7a 08 be
       0.34877568 0.17202975 0.11580033 -0.13328132
000280 52 64 c1 bc 18 73 43 3e 32 4e 6b 3e 3b a6 17 be
       -0.023607407 0.19086874 0.22979048 -0.14809506
000290 69 4d 98 3e e7 4b 42 be 8b 34 9d 3d a3 0d ca bc
       0.2974656 -0.18974267 0.076760374 -0.024664706
0002a0 e5 15 22 3e b1 a8 96 be 69 bc 30 3e 9a 18 4e bd
       0.15828665 -0.29425576 0.17259373 -0.05031643
0002b0 b8 44 59 bd a8 88 3e be a5 66 25 3e 77 24 49 3d
       -0.05304405 -0.18606818 0.16152437 0.04910704
0002c0 a1 7e a6 bd 00 25 f4 bd 70 39 b2 3e fe e5 91 bc
       -0.08129621 -0.1192112 0.34809446 -0.017809864
0002d0 67 ea 92 3c 14 4a f2 bd 26 a2 f7 bb 90 f9 6d bd
       0.017934037 -0.118305355 -0.0075571714 -0.05809933
0002e0 28 f9 43 3e 38 13 9b be ce 3f 64 3d ce a5 aa be
       0.19138014 -0.302881 0.05572491 -0.33329624
0002f0 cd 79 36 3d 10 f9 f6 be 77 43 e7 3d 3e 09 8f be
       0.044549752 -0.48236895 0.11292165 -0.2793674
000300 50 bc 5b bd 24 2f 6d 3e f9 c3 06 3e 70 0b 47 be
       -0.053646386 0.23162514 0.13160695 -0.19437957
000310 a6 e5 60 3e a1 ac 98 3e 28 45 58 3e 2a 7c 06 bf
       0.21962604 0.29819205 0.21120131 -0.5253321
000320 4d c7 ee 3d ae 5e e1 3e 1f 7a b6 3e 36 d8 b0 be
       0.11659107 0.44017547 0.35640046 -0.34539956
000330 a7 97 fa be 4d 90 63 3c f8 e1 d2 be f7 e1 b4 bd
       -0.48943827 0.013889384 -0.41188025 -0.08832162
000340 90 ec 5c be ea 1f d2 bd 7e c5 06 bb f3 38 15 be
       -0.21574616 -0.102599934 -0.0020564492 -0.14572506
000350 a4 da 40 be 11 a8 99 3d b6 8d c6 bd 50 66 d7 3d
       -0.18833405 0.07502759 -0.09694998 0.105175614
000360 48 1e ac 3e 3e 68 26 bd b2 15 e8 3e 68 e5 66 be
       0.33616853 -0.040626757 0.45329052 -0.22548449
000370 a3 f3 f7 be b7 86 b4 be e9 e2 15 bf 00 ef a1 3d
       -0.48428068 -0.3525903 -0.5854936 0.07906914
000380 d0 23 ec bb 76 5c 70 3d 25 a2 4d be c1 80 65 3e
       -0.0072064176 0.058681928 -0.20081384 0.22412397
000390 24 e8 84 be 95 59 24 bf f3 f9 eb bb f1 47 e7 bd
       -0.2595836 -0.6419919 -0.007201427 -0.112930186
0003a0 ff 17 54 be 6d 4d 0d 3e 74 07 49 be 95 bf b7 3d
       -0.20712279 0.13799067 -0.1963175 0.08972088
0003b0 23 7e 86 3e b5 b9 b9 3d 73 1c 9a 3d d1 cc aa 3e
       0.2626811 0.09068624 0.075249575 0.33359388
0003c0 60 0f 97 be 8b 69 ad be e1 bf 96 be 1d f8 ac 3e
       -0.29503918 -0.33869585 -0.29443267 0.33783045
0003d0 1c e1 1a be e7 66 9d 3e 75 b9 41 bd 4f be e4 3e
       -0.15124935 0.3074257 -0.047296006 0.44676444
0003e0 3a 63 3d bd cf 45 5a 3d f5 d6 f7 3d 20 7e 02 3f
       -0.046237208 0.05328923 0.12101547 0.509737
0003f0 64 2d ab bd 60 11 25 3e 68 ea 90 3e 52 56 65 be
       -0.08358267 0.1611991 0.28303838 -0.2239621
